…
# Resumen del modelo
summary(model)

# Compilación del modelo
model %>%
  compile(
    loss = 'categorical_crossentropy',   # Función de pérdida para clasificación múltiple
    optimizer = optimizer_adam(),         # Optimizador Adam
    metrics = c('accuracy')               # Métrica de exactitud
  )
Model: "sequential"
________________________________________________________________________________
 Layer (type)                       Output Shape                    Param #     
================================================================================
 conv2d_1 (Conv2D)                  (None, 26, 26, 32)              320         
 max_pooling2d_1 (MaxPooling2D)     (None, 13, 13, 32)              0           
 conv2d (Conv2D)                    (None, 11, 11, 64)              18496       
 max_pooling2d (MaxPooling2D)       (None, 5, 5, 64)                0           
 flatten (Flatten)                  (None, 1600)                    0           
 dense_1 (Dense)                    (None, 128)                     204928      
 dropout (Dropout)                  (None, 128)                     0           
 dense (Dense)                      (None, 10)                      1290        
================================================================================
Total params: 225,034
Trainable params: 225,034
Non-trainable params: 0
________________________________________________________________________________
Entrenamiento del Modelo
# Entrenamiento del modelo
history <- model %>% fit(
  x_train, y_train,
  epochs = 10,
  batch_size = 128,
  validation_split = 0.1,  # Usar el 10% final del conjunto de entrenamiento para validación
…
